models/penguin_classifier.pt (torch, 2981 bytes, 6 tensors)

fc1.weight f4 [10, 4]
000000 00 54 75 bb 5e 54 89 3e 16 b3 d2 be 80 66 bc be
       -0.00374341 0.2682218 -0.41152257 -0.3679695
000010 fa cb 51 be 80 66 91 be 15 3e 0b 3e a0 f5 1a 3f
       -0.20487967 -0.28398514 0.13597901 0.60531044
000020 70 bf 35 bd 4c 7b 07 3e ac bb 1a be 70 48 c9 bd
       -0.044372022 0.13230628 -0.15110654 -0.098282695
000030 b8 91 f4 be 52 8b a9 be e8 0e 53 be 00 bb 97 3c
       -0.47767425 -0.33114105 -0.20611155 0.018521786
000040 56 5e 37 3e 57 fe 8f 3e 8d 08 b7 be a3 88 71 be
       0.1790708 0.28123733 -0.3574871 -0.23587279
000050 19 41 cd 3e eb a8 c3 3e e9 a7 4e be 9c 18 b5 3e
       0.40088728 0.38214812 -0.2018124 0.35370338
000060 40 0d a5 bd 10 b5 58 3d 4a cd e7 3e ce 7b ed be
       -0.08059168 0.05290705 0.4527381 -0.46383518
000070 31 0b b6 be eb 0a 2a be fb f4 70 be c4 88 c7 3e
       -0.35555413 -0.16605727 -0.23530953 0.3897153
000080 1a ef a5 be c0 b0 6b be 1a da b2 be 76 c2 ef be
       -0.32408983 -0.23016644 -0.34932023 -0.4682805
000090 f8 80 df be a5 6f 4d 3f 39 b4 95 3e 94 ff 33 3e
       -0.43653083 0.8024848 0.2923906 0.17577964

fc1.bias f4 [10]
000000 40 6a d7 3c a5 fa 89 be c0 3e ad 3d 9e 06 ef be
       0.026295781 -0.2694904 0.08459234 -0.46684736
000010 c5 76 c2 be fa 39 da be 26 85 a1 3e 2e ba 81 3e
       -0.3798124 -0.42622358 0.31546897 0.25337356
000020 c8 11 63 be fe 2c 70 3e
       -0.22174752 0.23454663

fc2.weight f4 [10, 10]
000000 cc 19 4f 3e 6e f5 a0 3e 6d 84 00 3e 49 fb 2e 3d
       0.20224684 0.31437248 0.12550516 0.042720113
000010 72 1d 59 3e 12 aa 3e be 9a 5d 71 3d aa 0e 7b be
       0.21202639 -0.18619564 0.058927156 -0.24517313
000020 e9 6e 60 be 56 47 27 be c1 84 12 3e 6c a8 24 3e
       -0.21917309 -0.16335806 0.14308454 0.16079873
000030 5f d0 3f be ac a7 c3 3d 18 cd 44 3e 63 06 1c 3e
       -0.18731831 0.09553465 0.19218862 0.15236811
000040 4c d2 45 3c 9e a5 2a 3d 7d e3 48 3e b7 e2 6c 3f
       0.012074064 0.04166185 0.1961803 0.9253344
000050 8b 8a 79 be 86 01 13 be d9 86 fe 3d 37 26 86 3e
       -0.24369256 -0.1435605 0.12428064 0.2620103
000060 d9 c3 84 3e 0e c2 a5 3e 80 e3 80 3d 11 6b 7b be
       0.2593067 0.32374614 0.06293392 -0.24552561
000070 5f 4f ee 3c fa 37 2b bf 33 e4 96 be d4 da 02 3f
       0.029090581 -0.6688229 -0.29470977 0.51115155
000080 b4 37 76 3e 25 82 a1 be 2a 70 72 3d 9a bb 2a bc
       0.24044687 -0.31544605 0.059189 -0.010420704
000090 a4 26 55 bd 0c d5 d0 bd 45 0d f9 3d c3 1d f7 be
       -0.052038804 -0.101968855 0.12160734 -0.48264894
0000a0 cc 6a ed 3d ca c1 23 3e c2 cf 67 3e 62 28 f2 3d
       0.115926355 0.15991893 0.22637847 0.11824109
0000b0 25 3f a0 be 2a 0f 52 be d3 af 21 3e ff 8c 87 3d
       -0.31298175 -0.20513597 0.15789728 0.0661869
0000c0 ca 9a 7c be d4 75 3a be bf 50 98 3e e5 2d 02 3f
       -0.24668422 -0.1820901 0.29749104 0.5085128
0000d0 45 31 0d be ef ff a2 bd e1 d2 a3 be e3 e7 c0 bd
       -0.13788326 -0.07958972 -0.31996825 -0.09419229
0000e0 7c da 73 be b9 23 5a be d4 bc 8e bc 4a d3 a0 be
       -0.23813814 -0.2130269 -0.017424025 -0.314112
0000f0 eb 9c 04 be 59 25 40 3e 32 0e 45 be 3a e9 92 3e
       -0.12950484 0.18764247 -0.19243696 0.28693563
000100 73 e9 5d 3e e7 88 88 be a2 2f a1 bd a2 c8 69 3c
       0.21671085 -0.26666948 -0.07870413 0.014269026
000110 2c fb 3c 3d 2c 9a 99 3d 6b 26 fe 3d 74 2c 9b 3c
       0.046137974 0.07500109 0.124096714 0.018942095
000120 ef ff 1d be 0c 3a 19 3e 87 4f 9b be bb ed 3f be
       -0.15429662 0.1496355 -0.30334112 -0.1874303
000130 4b 1f a2 bd 57 bc 1d be 6c 90 e2 bd 2d b4 84 be
       -0.07916125 -0.15403877 -0.110627025 -0.25918713
000140 fc c2 89 bd 33 c2 ac 3e b2 f4 52 be db f1 84 bc
       -0.067266434 0.33741912 -0.20601156 -0.016228607
000150 c0 01 56 3e 0e e9 03 be 5b fe 0f 3c 6c c0 57 3a
       0.20899105 -0.12881872 0.00878867 0.0008230272
000160 b4 11 83 3d 8f b4 75 3e 09 5e 99 3e 5d a4 4d 3e
       0.06399861 0.23994659 0.29954556 0.20082231
000170 de b7 99 3e 1b 5a bb bc 2c 72 91 be ae 83 19 be
       0.30023092 -0.022870114 -0.2840742 -0.14991638
000180 25 7d 5c 3e 4d 58 06 bb c2 f3 20 be 1c 25 78 be
       0.21532114 -0.0020499409 -0.15717986 -0.24232906

fc2.bias f4 [10]
000000 c3 85 97 be a6 c0 06 3e 42 35 8c be 25 33 9c 3d
       -0.2959424 0.13159427 -0.27384382 0.076269425
000010 a3 11 2f 3e 97 3c ee be cb fd 49 3e da 63 7d be
       0.17096572 -0.465306 0.1972572 -0.24745122
000020 61 8c c2 bd 8d 4c 03 be
       -0.094994314 -0.1282217

fc3.weight f4 [3, 10]
000000 13 7d 79 bd 62 d6 a7 3e 7d fa 7e bf 09 56 8a bf
       -0.060910296 0.3278075 -0.99600965 -1.0807506
000010 d9 ae 4a bd d6 26 b7 be 1f 1a 13 be a1 f6 f3 3d
       -0.049483154 -0.35771817 -0.14365433 0.11912275
000020 43 e1 46 3e 08 d4 ae bc b6 62 8e 3e bb 5e f4 be
       0.19421868 -0.021341339 0.27809685 -0.47728524
000030 76 7b c9 3d 87 15 55 3f bf 1d 92 be 8a ad 68 3f
       0.098380014 0.83235973 -0.2853832 0.908898
000040 85 77 15 bd e2 8d 10 be 26 19 c7 3e 6b d6 82 be
       -0.036490936 -0.14116624 0.38886374 -0.25554213
000050 1e fd 0a 3d b4 45 46 be 70 da 83 3f 6a 25 77 be
       0.033932798 -0.19362527 1.0301037 -0.24135366
000060 8e 98 1b 3e 2b 13 2c bf 5d bd 9b bd 79 33 88 bd
       0.15194914 -0.6721675 -0.076044776 -0.06650443
000070 35 cd 91 bf 5e 75 2f 3e
       -1.1390749 0.17134616

fc3.bias f4 [3]
000000 4a 38 06 3f 35 fa c5 bd 71 9b 08 be
       0.5242964 -0.09666864 -0.13340546
