models/shape_classifier.pt (torch, 314807 bytes, 8 tensors)

conv1.weight f4 [12, 3, 3, 3]
000000 76 0e 8a bc 13 aa 51 3d ad 4c 4c 3e 42 fc db bd
       -0.016852599 0.051187586 0.19951124 -0.10741474
000010 fc 7e 1d be 18 5c 4d 3e f1 dc fa 3d 85 5a 55 3e
       -0.15380472 0.20054662 0.122491725 0.20835312
000020 46 ca 38 3e 07 b7 1f be 98 8f b5 3d d4 72 44 3e
       0.18045911 -0.15597163 0.08865279 0.19184428
000030 75 1f d2 3d 38 2b 1e 3e 7a bd 09 3e 23 48 c9 3d
       0.10259906 0.15446174 0.13451186 0.09828212
000040 a8 2c 0d bd f0 0a ac 3d af c9 2a bd 60 d3 a5 3d
       -0.034466416 0.08400524 -0.041696247 0.08096957
000050 13 94 0e be 28 63 21 bc bc 99 07 be fe 10 0e bd
       -0.13923673 -0.009850301 -0.13242239 -0.034684174
000060 38 43 da 3d db 45 89 bd 50 5f 0f 3d 08 a2 f2 bd
       0.10657352 -0.06702777 0.035003006 -0.11847311
000070 9c 61 9d 3d 6c 27 b5 3d 5c 2b 33 be b9 21 13 3e
       0.07684633 0.0884541 -0.17497009 0.14368333
000080 05 13 5b be 24 b3 89 bc a2 13 5c be 74 30 4d be
       -0.21393974 -0.016809054 -0.21491864 -0.20038015
000090 80 94 1f 3e 3b ab 51 be 6c 72 2b be 3a a3 d7 bd
       0.15583992 -0.20475475 -0.16742867 -0.1052918
0000a0 d0 bd d3 bd 32 b1 58 be fb f4 cf 3d 03 43 3d be
       -0.10338938 -0.21161345 0.10154148 -0.18482594
0000b0 c9 bc 43 be 4e 5d 33 be c2 0c 10 3c 35 ca a0 3c
       -0.19114985 -0.17516062 0.008792104 0.01962767
0000c0 84 4c 42 be ab 9f 0a be 0b 29 84 bd a8 dd d7 3d
       -0.18974501 -0.13537471 -0.06453141 0.105403244
0000d0 5b a8 07 bd a8 4a 63 be 48 bd 90 bc bd c1 65 3d
       -0.03311954 -0.22196448 -0.017668381 0.056092966
0000e0 4f 7c 15 bd 6c 77 fb bd a8 f2 1b 3e 26 b5 79 bd
       -0.036495503 -0.12278637 0.15229285 -0.060963772
0000f0 df 6e 26 be 6a 02 54 bc 4c 47 10 be 34 14 59 3c
       -0.16253231 -0.012940029 -0.14089698 0.013249446
000100 f4 7b 92 ba ae 90 3a be fa 20 00 3e 48 9a 03 be
       -0.0011175857 -0.18219253 0.1251258 -0.12851822
000110 e8 e7 39 be f6 59 1b be 1f 16 13 3d 15 e6 1d 3e
       -0.18154871 -0.15171036 0.03590977 0.154198
000120 78 b2 ff 3d 1b 23 44 bc 60 cd 50 3e 92 1d 5a 3e
       0.12485212 -0.01197126 0.20390844 0.21300343
000130 fa f5 31 bd b3 bf 06 3d 04 7a ba 3d aa f4 b7 bd
       -0.043447472 0.032897662 0.09105304 -0.08982213
000140 f2 8c 5a 3d be 77 a6 bc 3d ff dc bd 09 2f 04 3e
       0.053357072 -0.02032077 -0.1079087 0.12908567
000150 80 4b c8 bc 5a 81 ea 3d 6a 5b 35 bd 71 47 a9 3d
       -0.024450064 0.11450453 -0.044276632 0.082655795
000160 c6 f2 2f 3e 78 34 3f 3e 42 93 7e bd 94 3f c8 bd
       0.17182454 0.18672359 -0.062152155 -0.097777516
000170 30 71 c3 bc 0a 54 41 3e 94 d6 0a bd ea 20 ca bd
       -0.023857683 0.18879715 -0.033896044 -0.09869559
000180 92 d8 36 3d 57 00 a2 bd 5d 17 2c be ce 18 44 3d
       0.04464013 -0.07910221 -0.16805787 0.047875218
000190 99 b8 61 bd b5 de 1d be 80 a2 86 bd 5c e3 ab bd
       -0.055107687 -0.15416987 -0.06573963 -0.08392975
0001a0 5d dd ef 3d af 52 3b be a9 cc 10 3e 3b a2 99 bc
       0.117121436 -0.1829326 0.14140572 -0.018754115
0001b0 61 ce dc bc a8 71 71 bd 95 2d ac 3d 87 85 36 3e
       -0.026953878 -0.05894628 0.084071316 0.17824374
0001c0 23 3e 20 bd 54 a4 66 3d 2c 68 b2 bd e8 6b 31 3e
       -0.03912176 0.05630906 -0.087112755 0.17326319
0001d0 b8 73 11 3e ed 99 a7 bd 04 94 f4 bc 35 08 ed bd
       0.142043 -0.08183656 -0.029855736 -0.11573831
0001e0 ca b0 42 be f5 7c 23 3e db 63 1b 3d aa 50 44 3e
       -0.19012752 0.15965636 0.037937026 0.19171396
0001f0 e0 5d c5 3d 81 57 ef bd 43 8f b2 3c 33 aa 23 bd
       0.09637046 -0.11686612 0.021796828 -0.039957236
000200 78 ce 5c 3d 0d af 0c be df 36 82 bd 6f bb 22 be
       0.05390784 -0.13738652 -0.06358122 -0.15891813
000210 d3 72 0c 3e 11 2d 17 be 93 ff 02 3d f3 4c fa bc
       0.13715677 -0.14763285 0.031982016 -0.03055427
000220 6e 32 aa 3d 8a c3 4f be ec 3d 3f be d4 c4 30 be
       0.083104 -0.20289436 -0.18675965 -0.17262584
000230 c7 fc 88 3d 62 cb 42 be 4e 8f 09 bd 05 4f c7 bd
       0.066888385 -0.19022897 -0.03358393 -0.09731869
000240 f9 a1 c3 3d ed ee b2 bd 8d 7d 7d 3d 5e bc b1 3c
       0.09552378 -0.08736978 0.061887313 0.021696266
000250 cc 61 81 bd 95 75 31 be 96 18 08 be 3f 8f 19 3e
       -0.063174814 -0.1733001 -0.13290629 0.1499605
000260 43 00 4b be 1f 88 69 be 94 bb 06 be ac eb 2c be
       -0.19824319 -0.22805832 -0.13157493 -0.16886777
000270 5a bf 5c be 07 81 fa 3d ee 6c 61 be 21 e1 ca bd
       -0.2155737 0.12231641 -0.2201421 -0.09906221
000280 92 09 ed bd 8d f6 ea bd 3a e8 4f 3d e7 26 15 3e
       -0.11574091 -0.11472807 0.050758578 0.14565621
000290 65 17 48 be 5d 3d 08 be 87 02 ac bd 13 84 fb bd
       -0.19540174 -0.13304658 -0.083989196 -0.122810505
0002a0 c1 8d 9d bd ae 8f 45 3e a2 02 5a 3d dd 31 bb bd
       -0.07693053 0.1929309 0.053225167 -0.0914037
0002b0 d9 5d a8 3d 9b 66 bc bd ac 7f fe 3d 5d 90 72 3d
       0.08221025 -0.09199258 0.12426695 0.059219707
0002c0 a3 62 d4 bd a5 10 8e 3d 3e c5 2b bc 83 6e 21 3e
       -0.10370376 0.069367684 -0.010484038 0.15764813
0002d0 84 f2 06 be 36 4a 40 bd d2 6c 6b bd de 25 6c 3d
       -0.1317845 -0.046945773 -0.057476826 0.0576533
0002e0 af 1f 29 3e 49 68 2b 3d 72 da 16 3e 02 00 08 bd
       0.16515993 0.0418475 0.14731768 -0.033203132
0002f0 c5 24 aa bd a5 77 24 bd 70 2f af bd fc 6c 8f bd
       -0.083077945 -0.040153164 -0.0855397 -0.07003209
000300 22 d9 14 bd 97 a1 10 3e 76 4b eb 3d c8 ff 24 3e
       -0.036339886 0.14124142 0.114890024 0.16113198
000310 4e 60 7f 3d a3 90 ca 3c 1d 8b 7f bd b6 e5 0b 3e
       0.062347703 0.024727171 -0.06238853 0.13661847
000320 3a eb 1b be 34 6e 41 be a4 4c 08 3d 8f 2a 02 3e
       -0.1522645 -0.18889695 0.033276215 0.12711547
000330 f3 e8 ee bb 9d 2c 08 be 19 92 72 3d b6 ae 35 3d
       -0.0072909533 -0.13298269 0.05922136 0.04435607
000340 96 02 3c 3e 4e 56 7d 3c 04 d5 fa bc 3e 55 31 be
       0.18360361 0.015462471 -0.030619152 -0.17317674
000350 96 07 48 be 04 3a db 3d 30 8d e9 b7 10 54 43 be
       -0.19534144 0.10704425 -2.784151e-05 -0.19075036
000360 2e 9f 57 bd 4a 11 43 bd d4 c1 ac 3c 0a 57 80 3d
       -0.05264204 -0.04762391 0.021088518 0.062666014
000370 ea ac ac 3d 66 14 be 3d a8 65 1d be 3e 36 4c bd
       0.08431418 0.092812344 -0.1537081 -0.049856417
000380 41 fe 24 3e 48 04 1c 3d 1a cb f9 3c ec 9e dd bc
       0.16112615 0.03809002 0.030492354 -0.027053319
000390 aa c5 3c 3e 38 ed 16 be 68 7d 8c 3c 37 c3 38 3e
       0.18434778 -0.1473893 0.017149642 0.18043219
0003a0 6d 15 8b bd 2a 7c c5 bd e7 4c 66 3d 12 60 9e 3d
       -0.06791196 -0.09642823 0.056225684 0.07733168
0003b0 32 aa 24 be 6a 1c 32 3e 35 90 cf bd 08 7b 01 3d
       -0.1608055 0.17393652 -0.10134927 0.031611472
0003c0 0b 4f 3a 3d 02 02 95 3c 6a 08 01 be c0 1a 92 bd
       0.045485537 0.018189434 -0.12600866 -0.071340084
0003d0 f6 2f b8 3d 8b 02 58 be cc 0c 2e be 61 b8 4a be
       0.08993523 -0.2109472 -0.16997069 -0.19796897
0003e0 38 74 a0 bd cd b8 50 be 84 7e a0 3d c5 08 1c be
       -0.07834667 -0.20382996 0.07836631 -0.1523772
0003f0 55 8e cf 3d 95 db 26 3e d7 7e 77 3a e5 dd 07 3e
       0.101345696 0.16294701 0.0009441203 0.1326824

conv1.bias f4 [12]
000000 a3 50 23 be ea 0e 27 3e 5b 5d 42 3d fa 73 0e 3e
       -0.15948729 0.16314283 0.047452312 0.13911429
000010 46 62 bc bd 67 c6 82 bd c1 8f ba 3c b7 dc 5c 3e
       -0.09198432 -0.063854985 0.022773625 0.21568571
000020 69 67 02 3e 98 f9 1a bd 56 68 81 bd 67 11 0c 3e
       0.1273476 -0.037835687 -0.063187286 0.13678513

conv2.weight f4 [12, 12, 3, 3]
000000 e7 f8 84 3d af 8b 7c bc 07 26 4f 3d 90 e1 79 3b
       0.06492787 -0.015414163 0.050573375 0.003812883
000010 17 11 2f bc cb 9c 5f bd 95 52 8a 3c 9d 9e 8e bd
       -0.010685227 -0.05459289 0.016885081 -0.06963847
000020 e5 60 4e bd 85 5d de bc 15 d6 ae 3c 1f 07 1a bd
       -0.050385375 -0.027144203 0.021342317 -0.037604447
000030 08 62 82 3d 81 04 bc 3d 04 d6 16 3d 4d 23 90 3d
       0.06366354 0.091805466 0.036825195 0.07037983
000040 f0 cb 26 3d 9c 72 4b 3b e4 f0 6c 3d e6 c8 3b 3d
       0.040721834 0.0031043654 0.05784692 0.04584589
000050 5b ba 97 3d df 66 94 3c 41 c4 b4 3d 23 8d de 3c
       0.07408591 0.018115459 0.08826495 0.027166909
000060 a6 bc b6 bd d9 30 44 bc 4e 0f 3a bc 7f 77 70 3c
       -0.089227006 -0.011974537 -0.011356188 0.014676928
000070 3c 12 04 bd a9 d6 ed 3d 86 ee 3e 3c 38 3a fe bc
       -0.032243952 0.11613209 0.011653548 -0.03103362
000080 ee 1d 37 bd 31 af 90 3d f1 88 4e bd 04 a9 c6 3c
       -0.044706278 0.07064665 -0.050423566 0.024250515
000090 80 bc 61 3d 1d 13 1b 3e 52 03 c0 3c f7 6b 24 3e
       0.05511141 0.1514401 0.023439083 0.1605681
0000a0 91 74 89 bd a5 ff 34 3d e4 5c 02 3e 8d a7 a3 3d
       -0.067116864 0.044189114 0.12730747 0.07990942
0000b0 b7 26 f4 3d 6b 94 93 bd c6 56 5f bd e1 cc d2 bc
       0.11921447 -0.07206043 -0.054526113 -0.02573246
0000c0 76 98 4e bc 6a 32 ef 3c 7f 39 26 bd 46 6f 3a 3d
       -0.012609592 0.029198844 -0.040582176 0.045516275
0000d0 e6 d6 a1 bc 46 07 38 3d 1b 38 9e bc aa b0 50 bd
       -0.019755792 0.04492881 -0.019313863 -0.05094973
0000e0 85 26 53 bd 2f 2e 3e 3b 3c 3a 22 bb ae e9 90 bd
       -0.051550407 0.0029019227 -0.0024753949 -0.07075821
0000f0 eb e0 2b 3e 26 4d 97 3c 20 37 7f bd 8c 07 d5 3b
       0.16785018 0.018469404 -0.06230843 0.006501144
000100 d0 ed b9 bc c5 68 01 3e 76 d8 db 3d 3d d4 fb 3c
       -0.022696406 0.12637623 0.10734646 0.030740852
000110 33 1e ae bc 61 63 2e bc 7c 90 99 3d 41 99 06 3e
       -0.021254634 -0.010643811 0.07498261 0.13144399
000120 08 90 a6 3c de 01 52 3d 50 19 de bc 02 42 40 bd
       0.020332351 0.051271312 -0.02711168 -0.04693795
000130 24 76 d4 bb f2 fe ab 3d ce f9 cd 3d d9 8f 29 3d
       -0.00648381 0.08398236 0.10057412 0.04139695
000140 42 93 9d bd 2e 3e bc bc 8a df 89 3c d0 19 fb 3a
       -0.07694103 -0.022978868 0.016830225 0.0019157473
000150 f6 b6 f4 3d fd 4b 09 bd ea aa 96 3d 47 76 70 3d
       0.119489595 -0.033519734 0.07356818 0.058706548
000160 98 91 0e 39 e5 2f 02 3c 36 19 8e 3d 61 ca ab bd
       0.00013596413 0.007945989 0.06938402 -0.0838821
000170 76 4c 2b 3d b0 e7 8a bc 58 9e 6d bd 57 1e 55 bd
       0.041820966 -0.01695618 -0.058012336 -0.052030887
000180 25 8f 01 3d 67 4b 23 3b c7 ab 1e 3d fe 35 1b 3d
       0.031630654 0.002491677 0.03873804 0.037893288
000190 e5 95 ce 3c 68 d9 c1 3d e1 1b b3 3c 78 15 ce bc
       0.02521796 0.09465295 0.02186388 -0.025156721
0001a0 06 1f d2 3d 41 8d 80 bc 7b 8c eb 3d 8c b3 2a bd
       0.102598235 -0.015692355 0.11501404 -0.041675135
0001b0 09 9b 9c bd e7 8e 5a 3d 46 26 55 bc 82 46 87 bd
       -0.07646758 0.05335894 -0.013009613 -0.06605245
0001c0 ed 40 aa 3d 14 8a ef 3b cf ea 5e 3d 2e 76 3d 3c
       0.08313165 0.0073101614 0.05442315 0.011563821
0001d0 c4 5a 20 3c 57 91 03 bd 0c 5f ab bc ed fe 41 3d
       0.009787265 -0.03212103 -0.020919345 0.047362257
0001e0 d5 0e 9b 3b ab 4c cc 3c e8 c0 02 bd b7 6e 67 bd
       0.0047319927 0.024938902 -0.03192225 -0.05650207
0001f0 30 68 da 3d 80 fc c1 3c 94 a1 17 bd 09 a2 90 bd
       0.106644034 0.023679972 -0.037019327 -0.07062156
000200 41 c7 e4 3a e2 ff 48 3d 98 b1 81 bc 00 aa b5 3d
       0.0017454402 0.049072154 -0.015831754 0.088703156
000210 19 6d 01 3c 90 5f 3f 3c 9c 69 8c 3c c3 0d 8a bb
       0.007899546 0.011680499 0.017140202 -0.0042130663
000220 49 de c3 3d 66 64 ee bb f9 56 29 3b 1c 44 86 3b
       0.09563882 -0.007275152 0.0025839193 0.0040974747
000230 50 b1 98 3d ae d9 02 3e 5b 8d 72 bc b3 69 a0 3d
       0.07455695 0.1277835 -0.01480421 0.078326605
000240 7f f3 83 bc 9c 99 94 3d 57 c0 b3 bd 82 f1 5b bd
       -0.016107319 0.07255861 -0.0877692 -0.053697117
000250 a0 25 90 3d 19 5b a5 bd a6 e4 c2 3d ca 35 8b bc
       0.070384264 -0.08074016 0.095162675 -0.016993422
000260 ba 11 e6 3c ef a5 92 3b bf 98 81 3d 3f 0d 9d bd
       0.028084625 0.004475347 0.06327962 -0.07668542
000270 80 e6 9c 3d 71 3b a9 3d a9 97 67 3c 32 03 a7 3d
       0.07661152 0.08263291 0.01413528 0.08154906
000280 f6 b3 b9 3d ce ea 06 b9 7f cf 1e 3d 5c a7 4b bd
       0.09067528 -0.00012866707 0.038772102 -0.049720153
000290 79 cd 9a 3d 04 cd 78 bc c4 44 b2 3d 46 5b 5c bd
       0.07558722 -0.015185598 0.08704522 -0.053797983
0002a0 78 ad 1c 3d a5 0a 6f 3d 4e aa bb 3c ff fb 71 3d
       0.03825137 0.05835976 0.022908356 0.059078213
0002b0 32 a7 f1 bb 0a 2b a2 3c 88 53 de 3d 0d be 73 3d
       -0.0073746676 0.019795913 0.10855776 0.05950742
0002c0 de 2a bb 3d 33 c3 b2 3d 0f fc 39 3d 3a 18 07 3e
       0.09139036 0.087286375 0.045406397 0.13192835
0002d0 c4 42 04 3c b7 8d 6c 3d 5e 5e 91 bc e3 fd 12 bd
       0.008072559 0.057752337 -0.017745193 -0.035886656
0002e0 88 09 6b 3c 01 26 ec 3c 66 31 46 bc 84 0a 51 bd
       0.014345534 0.028826715 -0.012096738 -0.05103542
0002f0 13 86 74 bd 44 8c 84 3c 4e 5e d4 3d e3 1e d8 3d
       -0.059698176 0.016180165 0.1036955 0.10552766
000300 59 f8 81 3d eb 70 e5 bc 0a c9 f7 bb 09 d5 ff 3d
       0.06346197 -0.028007945 -0.0075618075 0.12491805
000310 11 e3 bf 3b 0e 91 ff 3c fa 3e ab 3d 26 23 b0 bd
       0.005855926 0.031197097 0.08361621 -0.08600454
000320 0b ae a9 3d bb b6 0c bd e6 16 5c 3c bc 38 ce 3b
       0.08285149 -0.034353953 0.013433194 0.0062933844
000330 6d d8 9a bd d3 94 c5 bd b1 ce b5 3d 17 2a 0f 3e
       -0.07560811 -0.096475266 0.08877314 0.139809
000340 b7 08 ee 3b a2 eb 15 3d 02 2e 78 bc fa 94 29 bd
       0.0072642225 0.03660167 -0.015147688 -0.04140184
000350 d7 67 57 bd a7 25 04 3e f1 a7 b8 3d 26 6c c1 bc
       -0.052589264 0.12904988 0.09016407 -0.02361114
000360 29 cf 15 3d a1 f1 75 bd e9 4c 12 bb b2 03 4a 3d
       0.036574516 -0.06004489 -0.0022323674 0.04931993
000370 64 6a ac 3d da e7 b0 bb 73 bd fb 3c 70 0c 22 bd
       0.0841873 -0.0053987326 0.030729985 -0.039562643
000380 9c 90 b4 3d a1 59 62 bd e6 80 a9 bc 7b c8 bf bd
       0.088166445 -0.055261258 -0.020691346 -0.093644105
000390 57 44 00 3b f0 0a 09 3d 53 ea 7f 3d 1e 49 93 bb
       0.0019571984 0.033457696 0.06247933 -0.0044948
0003a0 ff b4 b8 bd a1 58 af 3c 3c 60 c4 bc 6a 94 9d bd
       -0.09018897 0.021404566 -0.02397167 -0.07694323
0003b0 c4 ea 7d 3d bb a3 45 bd 08 5e b0 bc 07 e1 62 3d
       0.061991468 -0.04825185 -0.021529213 0.055390384
0003c0 20 a9 88 bd 22 96 93 bc d0 6f b1 3d 93 f9 b3 bd
       -0.06672883 -0.018015925 0.08663905 -0.08787837
0003d0 b9 0e 8a bd d0 94 a5 3c 78 16 ec bc 92 66 82 39
       -0.067410894 0.02021256 -0.028819308 0.00024871953
0003e0 f5 2b ca bc 5f 63 64 bd ee d7 bc bd 34 27 7f bd
       -0.024679163 -0.05575883 -0.09220873 -0.062293246
0003f0 2a eb ac 3d 73 f2 aa 3d c9 da de 3b 70 38 5f 3d
       0.084432915 0.08347025 0.0068009836 0.054497182

conv2.bias f4 [12]
000000 81 da 1a 3d 43 1e 38 3c 16 cd 4d 3d d3 b0 88 bd
       0.037806038 0.011237684 0.050244413 -0.066743515
000010 dd b1 47 3c 2a 5f 13 bd 20 f3 e6 3d 1c ac 6f 3d
       0.012188402 -0.035979427 0.11276841 0.058513746
000020 4d fe 52 bd 1c f1 4a 3d 98 1b 70 3d 02 cd 7b 3c
       -0.05151205 0.049546346 0.058620065 0.015368702

conv3.weight f4 [24, 12, 3, 3]
000000 74 94 2e bd 70 51 bd 3d 33 5f 2a 3d 9b 5e e3 3b
       -0.042622045 0.092440486 0.041594695 0.006938768
000010 2b 8f a5 3d 48 1b 25 3d 3d 54 ca 3c 6d 21 d4 3d
       0.08083948 0.04030922 0.024698371 0.10357938
000020 be 32 4e 3d a1 55 7d 3d e6 36 01 3e 6f 04 08 bd
       0.05034136 0.06184924 0.12618598 -0.033207353
000030 a3 93 5c 3d 04 a2 43 3d c3 91 0d 3e 0c 19 e8 3d
       0.053851735 0.047761932 0.13825135 0.11332902
000040 6e e2 d4 3d d0 ae 0b 3e 25 d0 b6 3c 63 6f 82 3d
       0.103947505 0.13640904 0.022316048 0.063689016
000050 c5 d2 3d bd ff d4 d4 bc 62 7e 68 3d 6d 38 62 bd
       -0.046343584 -0.02598047 0.056761153 -0.055229593
000060 ab bf 9e bc 11 8d 5d bd 47 95 70 3d 07 6c 5a 3d
       -0.019378504 -0.05408961 0.058736112 0.05332568
000070 36 fd 05 bd e1 32 83 bd 2a 2f 9d 3d e1 ff 25 bd
       -0.032712184 -0.06406189 0.076750115 -0.04052723
000080 ab 41 a7 3c af 26 64 bd a4 fd 8c 3d 55 27 9b bc
       0.020417055 -0.055700954 0.068843156 -0.018939653
000090 31 53 91 bd d5 a1 ca 3c 09 ea 3f bd 5b 33 a9 bd
       -0.070959456 0.02473537 -0.046854053 -0.082617484
0000a0 f7 1b 84 3c d9 0e a7 3d b4 f3 cc bd 4c e1 d9 3b
       0.016126616 0.08157129 -0.1000742 0.006649172
0000b0 20 92 9e bc 41 e1 af 3b 6b 26 ce 3d 4f 1c 3e bd
       -0.019356787 0.0053674285 0.100659214 -0.046413716
0000c0 05 ac a8 3d 0f a0 aa 3d f3 20 71 bd fd 34 6e 3c
       0.08235935 0.0833131 -0.058869313 0.014539001
0000d0 d0 5a 0d 3d 59 31 db 3b 3d c2 d8 bb 55 c1 39 3a
       0.034510434 0.0066892323 -0.006614952 0.00070859987
0000e0 4e 28 54 3d fa ee 33 bd 38 95 ce 3d e9 4f 10 bd
       0.05179625 -0.043929078 0.10087055 -0.03523246
0000f0 e7 fa ac 3c c2 ef f6 bc 8e 44 07 3e 85 cb 83 bd
       0.021115733 -0.030143622 0.13209745 -0.06435303
000100 10 34 c8 3d 94 1a b6 3d 82 cb 20 3d 7c d8 39 bb
       0.09775555 0.08891788 0.03925658 -0.0028357795
000110 f4 d8 11 3d ec 5b 32 bd ea a5 95 bd e0 11 0e bd
       0.035607293 -0.043544695 -0.07307036 -0.034685016
000120 25 84 d0 3d 8e 89 eb 3d b1 eb b6 bc 3b 92 04 3d
       0.101814546 0.11500846 -0.022329183 0.03236602
000130 41 32 87 bd 06 c4 de bb 80 27 58 bd f1 e9 d0 bc
       -0.06601382 -0.00679827 -0.052772045 -0.025502177
000140 d5 de 46 3d 63 ae 19 bc 6f c7 4a bd 22 e8 ac b9
       0.048552353 -0.009379956 -0.0495066 -0.0003297935
000150 5f f3 08 3d 3f 28 30 bd da 72 1f bc c5 54 b8 bc
       0.03343522 -0.04300713 -0.009731973 -0.022501359
000160 f6 60 9d bd 6b 84 dc bc 1f 83 8a 3c 30 01 7e 3b
       -0.076845095 -0.02691861 0.016908227 0.0038758032
000170 fa 58 c7 3c 56 2b c1 3b ba 5b 87 3d 7a b1 aa 3d
       0.02433442 0.0058950586 0.06609292 0.08334632
000180 42 0f d0 bd 1c d6 57 bc 62 d8 96 bd 0b ea b4 3d
       -0.1015916 -0.013173606 -0.073654905 0.08833703
000190 d2 1a 54 bc 9d 5a 70 bd d4 ce a5 3d db ac f9 3d
       -0.012945848 -0.058680166 0.0809609 0.12191173
0001a0 10 90 81 bc 65 d5 fb 3d 9d 01 b3 3d 24 a2 df 3d
       -0.015815765 0.12296561 0.08740542 0.10919598
0001b0 d7 2b 2e 3b 00 b5 ec bc 57 9e 07 3e 38 e9 60 bc
       0.0026576424 -0.028894901 0.13243996 -0.013727479
0001c0 8e 80 16 bd c6 71 35 3d ce 9f a2 bd 09 fc cd bd
       -0.036743693 0.044297956 -0.079406366 -0.100578375
0001d0 25 ec 8f 3d b6 61 2d bd 14 fb 0f bd 82 e4 6c 3d
       0.07027463 -0.042329513 -0.035151556 0.05783511
0001e0 44 5e 00 bd 17 1c 0a bc 39 20 3d bd 29 97 ae 3c
       -0.0313399 -0.008429549 -0.046173308 0.021312313
0001f0 6f 16 87 bd 06 28 5e 3d 05 dd bd 3d 7f 15 fa 3c
       -0.06596076 0.054237388 0.09270672 0.030527828
000200 6b 63 dd bc c2 ee 21 bc 47 62 70 bc 26 22 e0 3b
       -0.027024945 -0.009883584 -0.014671869 0.0068400083
000210 2d 33 05 bd 5e 1b 0c bb e8 cf 78 3d bc 52 06 bd
       -0.03251951 -0.0021378617 0.06074515 -0.032793745
000220 cd 15 a1 3d f1 13 bd 3d f1 1c a3 3d 38 55 78 bd
       0.07865486 0.09232319 0.079645045 -0.060628146
000230 56 cf 05 3d 96 f7 89 bd d6 4b c3 bd 3d 66 92 bd
       0.032668434 -0.067366764 -0.09535949 -0.07148407
000240 0a 20 cb 3d 2b 4a b8 bd e9 b8 85 bd 11 ef 0d 3d
       0.0991822 -0.089985214 -0.065294094 0.03465182
000250 ed c3 44 3d aa f0 20 3d 7a 19 91 bd 92 ea d1 bc
       0.048038412 0.039292015 -0.070849374 -0.025624547
000260 d0 39 12 3d be f6 20 bb 68 36 79 3c c4 84 b4 3c
       0.035699666 -0.0024561132 0.015210725 0.022035964
000270 df 51 90 bd 50 40 e4 3c 5c 79 a6 bc fb 44 8f 3d
       -0.07046866 0.027862698 -0.02032154 0.06995579
000280 6e 46 c3 bd 0e 79 86 bc df 11 b5 3d 75 44 80 3d
       -0.09534918 -0.016415145 0.08841299 0.06263057
000290 9c 5f eb 3d 05 3a 3f bb fe 13 8b bd 11 2c 0b 3c
       0.114928454 -0.002917887 -0.067909226 0.008494393
0002a0 97 15 88 bc 59 13 9c bc f5 31 83 3d a4 2f d1 3c
       -0.016611857 -0.019052194 0.06406013 0.025535412
0002b0 66 81 5d 3b 7d d7 67 bd e9 6d b5 bd c2 82 90 3d
       0.0033799051 -0.05660199 -0.08858854 0.0705619
0002c0 c9 bf c8 3d 76 a8 76 3d 65 b9 e4 bc 2b 19 f3 3c
       0.09802205 0.06021925 -0.027920434 0.029675087
0002d0 08 8a 6d 3c 25 d5 d8 3d 5f 1e ad bc ea 49 8c bd
       0.014498241 0.10587529 -0.021132646 -0.068500355
0002e0 30 16 57 ba d0 43 69 3d 58 95 5c bd 4c 66 04 3d
       -0.00082049053 0.056949437 -0.053853363 0.03232412
0002f0 d7 40 99 bd 3d 1c 36 3d 24 37 8d bc 15 da c7 bb
       -0.0748307 0.044460524 -0.017238207 -0.0060989955
000300 21 db 79 3d 42 af 53 3c b5 f3 2f 3c e0 09 9a 3c
       0.060999993 0.012920203 0.010739257 0.018803537
000310 bd 38 c3 3c f2 df d1 3d d8 6a 3b bd 43 cd 5a 3d
       0.023830766 0.10247792 -0.04575619 0.05341841
000320 56 b0 c6 bd 88 68 79 bd b3 6a c5 3d 1c 9f 8e bd
       -0.09701602 -0.060890704 0.09639492 -0.069639415
000330 63 66 87 3a 21 7a 62 3d 8a 28 c0 3d 4f 08 15 3c
       0.0010330196 0.055292252 0.09382732 0.009096219
000340 0a f0 80 bd e6 83 85 3d 83 79 95 bc db 57 b7 3c
       -0.06295784 0.06519298 -0.018246418 0.02238076
000350 b1 0f ba bd ac 17 c2 3c 9b 04 b0 bd c3 56 9b 3d
       -0.09085024 0.023692928 -0.085946284 0.07584908
000360 1a 5a ae bc 5a 17 01 bc 9a 9a 20 bd ab 4f 42 3d
       -0.021283198 -0.007879103 -0.03920994 0.04743926
000370 e4 f7 bc 3d 9e 33 3c 3d 8e 0d 99 bb e1 03 73 bd
       0.09226969 0.045947663 -0.0046708053 -0.05932987
000380 e0 8d 3c b9 94 ad 97 3d bb 17 2f bd f2 a1 88 3d
       -0.0001798193 0.07406154 -0.04274724 0.066715136
000390 9d a3 7d 3c 48 65 9e bd 86 0c ad bd 04 98 87 3b
       0.015480903 -0.077341616 -0.08449654 0.0041379947
0003a0 fb b1 fe bc b1 0d 5a 3c 82 b3 1d 3b 18 e1 dc bd
       -0.031090727 0.013308928 0.0024063294 -0.10785121
0003b0 ee 11 ab bd 1b 2c 7c 3d 45 92 26 bc cc 87 20 3d
       -0.08353029 0.0615655 -0.010166709 0.039192006
0003c0 8a 1f b1 3d 3f d5 86 bd 09 1d 76 3d ef 66 b3 bc
       0.08648594 -0.06583642 0.060086284 -0.021899668
0003d0 02 f1 bd 3d 01 c5 71 3d 3d 5a bf 3d df 88 94 bd
       0.09274484 0.05902577 0.093433835 -0.072526686
0003e0 d3 22 b6 bd 56 7e 5f 3c 71 f5 29 bd e1 32 9c 3b
       -0.08893361 0.013640961 -0.041493837 0.0047668074
0003f0 ad 70 2f bd 29 4b 86 bc bd c5 c2 bd c1 07 a6 bd
       -0.042832065 -0.016393261 -0.09510372 -0.08106948

conv3.bias f4 [24]
000000 33 08 dd 3d ec 88 ad bd 00 86 7a 3d d5 b4 c6 bd
       0.107925795 -0.084733814 0.06116295 -0.0970246
000010 c3 c5 80 bd ea 0f ca bc 33 a9 9a 3d f6 c4 80 bc
       -0.0628772 -0.024665792 0.075518034 -0.015718918
000020 f7 07 76 3b 33 fe b4 3d a7 6e 81 bd d8 65 7c 3d
       0.0037541369 0.08837547 -0.063199334 0.061620563
000030 5a aa d4 bc 4a 94 53 3c 7d 1f 0b 3d 0c 71 76 3d
       -0.025960136 0.012913773 0.033965576 0.060166404
000040 ae 02 e2 bb 4a 23 7c 3d 19 a7 76 bd 16 af 9b 3d
       -0.006897292 0.06155709 -0.06021795 0.07601754
000050 25 89 a7 3d cf a8 84 bc 71 e0 8b bd 3d e2 d8 bc
       0.08180455 -0.016193775 -0.06829918 -0.026475066

fc.weight f4 [3, 24576]
000000 26 5f 06 bc 55 92 0e bc 22 2e 6c bb 49 f5 e2 3a
       -0.008201396 -0.00870188 -0.003603824 0.0017315532
000010 1d 51 ab ba ff 70 f3 ba 11 80 92 bb 89 de ad bb
       -0.0013070438 -0.0018573104 -0.004470833 -0.0053060693
000020 69 d1 c9 3b 45 4e 62 bb 57 73 a7 3b 48 71 9b b9
       0.006158997 -0.0034531516 0.005110185 -0.00029648305
000030 31 0f 7a 3a ee 26 24 bb 82 ba 6f ba 56 74 43 bc
       0.0009539007 -0.0025047618 -0.00091449183 -0.011929592
000040 64 72 af bb ce 31 b2 3b c2 b9 37 3b b6 db 99 3b
       -0.0053542126 0.005438066 0.0028034304 0.004695381
000050 95 04 96 3b b7 62 38 3b 2e 86 17 3c 87 c9 2b bb
       0.004578183 0.002813501 0.0092482995 -0.002621265
000060 8d bd 3a bb e1 53 6b bb 5f 07 83 3b 08 a5 d1 bb
       -0.0028494329 -0.003590815 0.0039986814 -0.006397847
000070 c4 d8 2d 3c 33 26 0a bb 30 ad bd 3b 2e 84 c0 3b
       0.010610763 -0.0021079897 0.005788468 0.005875132
000080 f5 3c b2 bb 19 3a 35 bc 05 a3 fd bb 1a 4f c8 bc
       -0.0054393956 -0.011061215 -0.0077403807 -0.024451781
000090 e0 f7 0c bd 26 25 ea bc 19 91 e5 ba c6 77 01 3c
       -0.03441608 -0.028582167 -0.0017514556 0.007902091
0000a0 db ac 16 bc 4b 78 0f 3c ed 6d 8c 3c 1a bb 4a 3c
       -0.009196485 0.008756707 0.01714226 0.01237371
0000b0 8b 3d 83 3c 5b 72 c2 b9 80 ee 20 bc 1e d6 0a bc
       0.016020557 -0.00037087765 -0.009822488 -0.008473901
0000c0 76 76 36 bc b3 88 22 bc c8 4a 50 bc a6 21 9e bb
       -0.011136642 -0.009920287 -0.012713142 -0.0048257886
0000d0 ec bf 6c bc 31 8d 07 bb 69 d1 61 bc 8c fa 62 ba
       -0.014450055 -0.0020683522 -0.013782837 -0.000865855
0000e0 19 a8 01 3b 91 d3 d3 3b 31 a1 45 3b 13 9e a0 3b
       0.0019784032 0.0064644297 0.0030155892 0.0049016564
0000f0 ca 58 ba bb 00 90 ad 3b fa 33 f7 bb ed 22 d1 bb
       -0.005686854 0.005296707 -0.007544038 -0.0063823373
000100 67 9d 12 3b cb 2d 8b bb de 26 4b bd fc d9 58 bd
       0.002237165 -0.0042474023 -0.049597614 -0.05294226
000110 1f 2b 0f bd a5 7a 05 bd 63 c5 60 bc 69 0a 45 bc
       -0.034953233 -0.032587666 -0.013718936 -0.012026408
000120 10 b2 10 3c 7f 60 1c 3d 32 a6 dc 3c 9f 73 13 3d
       0.008831516 0.038177963 0.026934717 0.035998937
000130 8e b1 93 3c f8 e9 34 b8 3c 4c e1 3b 01 5d 8c 3b
       0.018029 -4.3133245e-05 0.006875543 0.004283548
000140 9c b3 dc bb 19 23 ad bc 1c f6 3f bc 77 5b 90 bc
       -0.0067352783 -0.0211349 -0.011716392 -0.017621739
000150 65 8c b0 bc e0 1f 24 bc d1 6f 13 bb c5 a0 57 39
       -0.02155132 -0.010017365 -0.0022497068 0.00020563889
000160 7d bb f6 bb 3a ab 7c bc 9f 6e 25 3c c0 b9 0c 3c
       -0.0075296746 -0.015421683 0.010097175 0.008589208
000170 f7 05 22 bc da e8 49 3c 24 c6 ea ba ff 24 3f ba
       -0.009889117 0.012323583 -0.0017911834 -0.00072915846
000180 b7 6b 4d 3c 38 ee d4 bc cf 84 b9 bc 97 86 49 bd
       0.012537888 -0.025992498 -0.022646336 -0.04920062
000190 59 74 49 bd fb 8e 21 bd 6c 1f 0a bd 4c 33 8c bb
       -0.049183223 -0.039442997 -0.033721372 -0.004278576
0001a0 08 f3 54 3b 11 01 51 3c e4 0d 95 3c 37 93 15 3d
       0.003249349 0.012756602 0.0181951 0.03651735
0001b0 aa e8 f3 3c 50 27 3e 3c ee 3b f1 bb 77 dc 8a 3a
       0.029774029 0.0116060525 -0.0073618805 0.0010594268
0001c0 22 9c 41 3b 67 4a b3 ba df 5c 08 bc d6 ca 7e bc
       0.0029542525 -0.001367879 -0.008322923 -0.01555129
0001d0 9e b2 02 bd 55 36 8a bc 79 3d ff ba 27 8b 05 bc
       -0.031908624 -0.01687161 -0.0019473276 -0.008150852
0001e0 cd 77 0e bc 66 79 9c 3b 37 58 d7 3b 39 08 08 3c
       -0.008695555 0.004775214 0.0065717953 0.008302742
0001f0 49 15 34 3c 9b 4d 98 3b c9 70 a2 bb c9 b9 05 3c
       0.010991403 0.004647923 -0.0049572927 0.00816197
000200 c0 05 f0 39 b2 7e 09 bc f4 d6 ff 39 cd ea f3 bc
       0.0004578065 -0.008392023 0.00048797543 -0.029775048
000210 6e e3 36 bd d1 fc 26 bd be 50 c8 bc 0d 8b a9 bc
       -0.044650488 -0.04076845 -0.024452563 -0.020696187
000220 9e 47 f2 bb 88 41 63 bc f7 a6 df 3b 27 25 4f 3c
       -0.0073937913 -0.013870604 0.0068253237 0.012643135
000230 c7 c1 df 3c 2b 02 b7 3c a6 ff e4 bb 0d 78 0d bc
       0.02731408 0.022339901 -0.0069884835 -0.008634579
000240 ac 5d bb bc fd 52 9e 3b eb eb 72 bc 24 93 2e bc
       -0.022871815 0.0048316703 -0.014826755 -0.010655198
000250 f5 54 9e bc ba 10 2b bc 11 cd c5 bc f4 ce ea bc
       -0.01932762 -0.010441 -0.024145635 -0.028663136
000260 08 ee d4 bb 32 7e a9 ba 42 c0 35 3c 9e 18 c0 3b
       -0.006498102 -0.0012931286 0.011093201 0.0058623096
000270 70 30 ad 3c 4c 67 ed 3b 91 90 1a ba fc 48 98 3a
       0.02114126 0.00724498 -0.0005896176 0.0011618431
000280 ba 7e e7 bb 5d 0d 34 3b 52 aa 21 3c f9 7a 55 3b
       -0.0070646675 0.0027473785 0.009867268 0.0032574518
000290 12 46 d1 bb 6b 7e 89 bc 73 e4 d0 bc d1 a2 c4 bc
       -0.006386527 -0.016783914 -0.025499558 -0.024003418
0002a0 32 57 9d bc 83 62 5e bb 0b d6 d7 3b 08 dc 4c bc
       -0.019206617 -0.003393323 0.006586795 -0.012503631
0002b0 17 dd 2f 3c ba ab b3 3c b7 f6 70 3c 32 f4 ee 3a
       0.010733864 0.021932472 0.014707259 0.0018230735
0002c0 ef 98 c7 3b 5f a2 48 3a 42 75 01 3b 6c d8 0a ba
       0.006091229 0.000765359 0.001975373 -0.00052965316
0002d0 28 c3 3e bc 0b 7c 36 bc 7d c4 aa bc f0 36 c5 bc
       -0.011643209 -0.011137973 -0.020845646 -0.024074048
0002e0 d7 5e 60 bc f7 8a b1 bb 2f c8 86 3c 66 f2 98 3c
       -0.013694487 -0.005418177 0.016452877 0.018670272
0002f0 16 83 d7 3a a1 9d 1b 3c 72 4c 07 bc 29 bc 82 bb
       0.0016442265 0.009498031 -0.008257972 -0.0039897156
000300 b0 93 20 3b 46 15 4e 3c df c1 74 3c c8 3e 27 3b
       0.002450209 0.012578314 0.014938801 0.0025519598
000310 df ab c0 bb d9 0c 7b 3b 27 2e b5 bc ec 93 81 bc
       -0.0058798636 0.0038307218 -0.022116734 -0.015817605
000320 6e fc bd bc 9a e5 97 bc a2 e4 dc 3b 36 a6 02 bb
       -0.023191657 -0.0185421 0.0067411223 -0.0019935495
000330 18 fa 1e 3b 19 cd e4 3b 54 ca 13 3c cf bc 39 3c
       0.0024257954 0.0069824574 0.009020407 0.011336519
000340 51 04 2d bc aa 88 72 bb f7 e6 a8 bb a7 cf b4 3b
       -0.010560111 -0.0037007728 -0.0051544863 0.005517918
000350 1e 89 1f bc 58 d4 5e bc 90 84 b8 bc d4 ca f7 bc
       -0.009737281 -0.013600431 -0.022524148 -0.030248083
000360 c7 ee ad bc f7 ef 09 bc 29 e5 45 3c e4 b8 fb 3a
       -0.021232022 -0.0084190285 0.012078562 0.0019204882
000370 dc 64 d9 3b a6 1a 8f 3c f8 60 88 bb 6f 45 19 bc
       0.006634338 0.017468762 -0.00416195 -0.009354933
000380 43 80 81 bc ba 52 99 bb 69 f0 f2 3c 89 7a b2 3c
       -0.01580823 -0.004679051 0.029655652 0.021786945
000390 a6 2d 3d 3c 18 53 64 3b f3 ad 85 3b e6 76 22 bc
       0.011546528 0.0034839567 0.0040795743 -0.009916043
0003a0 04 aa b7 bc 06 b4 c6 bb 78 92 7c bc 80 43 b1 39
       -0.022419937 -0.006063941 -0.01541578 0.00033810362
0003b0 47 fb b8 3a e3 3b db 3c 8b 03 ab 3c 2e aa d4 3b
       0.0014112972 0.026761955 0.020875713 0.0064900136
0003c0 3b 5d 22 3c 4f ab be bb 5b 65 ae bb f3 aa 99 3b
       0.009909923 -0.0058187614 -0.005322141 0.004689568
0003d0 5a 47 35 bc fc d3 31 bc 07 80 99 bc 5a 15 e0 bc
       -0.011064375 -0.010853764 -0.018737806 -0.027353931
0003e0 7c a8 e4 bc 59 ac 4d bc 46 04 0c b9 dc 8b 1d 3c
       -0.02791237 -0.012553298 -0.00013353032 0.009615865
0003f0 cb be 26 3c 21 a1 59 3c 0a 2d 6a bb 5a 01 fd bb
       0.0101773245 0.013283045 -0.0035732412 -0.0077211084

fc.bias f4 [3]
000000 0d c2 a3 bb 9e ad b1 3b 64 95 c3 3b
       -0.004997498 0.005422308 0.0059687365
